…
2017-12-07 22:40:16.030651: I tensorflow/core/common_runtime/gpu/gpu_device.cc:1030] Found device 0 with properties:
name: Tesla K80 major: 3 minor: 7 memoryClockRate(GHz): 0.8235
pciBusID: 0000:84:00.0
totalMemory: 11.17GiB freeMemory: 11.11GiB
2017-12-07 22:40:16.030703: I tensorflow/core/common_runtime/gpu/gpu_device.cc:1120] Creating TensorFlow device (/device:GPU:0) -> (device: 0, name: Tesla K80, pci bus id: 0000:84:00.0, compute capability: 3.7)
_________________________________________________________________
Layer (type)                 Output Shape              Param #
=================================================================
cov1 (Conv3D)                (None, 20, 30, 18, 30)    980
_________________________________________________________________
leaky_re_lu_1 (LeakyReLU)    (None, 20, 30, 18, 30)    0
_________________________________________________________________
dropout_1 (Dropout)          (None, 20, 30, 18, 30)    0
_________________________________________________________________
flatten_1 (Flatten)          (None, 324000)            0
_________________________________________________________________
dense_1 (Dense)              (None, 100)               32400100
_________________________________________________________________
dropout_2 (Dropout)          (None, 100)               0
_________________________________________________________________
dense_2 (Dense)              (None, 1)                 101
=================================================================
Total params: 32,401,181
Trainable params: 32,401,181
Non-trainable params: 0
_________________________________________________________________
/home/Brain/code/multi_gpu.py:45: UserWarning: The `merge` function is deprecated and will be removed after 08/2017. Use instead layers from `keras.layers.merge`, e.g. `add`, `concatenate`, etc.
…
