…
INFO (theano.gof.compilelock): To manually release the lock, delete /home/xsede/users/xs-tanfei/.theano/compiledir_Linux-2.6-el6.x86_64-x86_64-with-redhat-6.9-Santiago-x86_64-2.7.9-64/lock_dir
loading data
1
(31406, 61, 4)
('train_label: count', (array([0, 1]), array([15703, 15703])))
('valid_label: count', (array([0, 1]), array([1962, 1962])))
('test_label: count', (array([0, 1]), array([1962, 1962])))
building model...............
____________________________________________________________________________________________________
Layer (type)                     Output Shape          Param #     Connected to                     
====================================================================================================
cov1 (Convolution1D)             (None, 58, 80)        1360        convolution1d_input_1[0][0]      
____________________________________________________________________________________________________
leakyrelu_1 (LeakyReLU)          (None, 58, 80)        0           cov1[0][0]                       
____________________________________________________________________________________________________
dropout_1 (Dropout)              (None, 58, 80)        0           leakyrelu_1[0][0]                
____________________________________________________________________________________________________
cov2 (Convolution1D)             (None, 57, 80)        12880       dropout_1[0][0]                  
____________________________________________________________________________________________________
leakyrelu_2 (LeakyReLU)          (None, 57, 80)        0           cov2[0][0]                       
____________________________________________________________________________________________________
dropout_2 (Dropout)              (None, 57, 80)        0           leakyrelu_2[0][0]                
____________________________________________________________________________________________________
cov3 (Convolution1D)             (None, 54, 80)        25680       dropout_2[0][0]                  
____________________________________________________________________________________________________
leakyrelu_3 (LeakyReLU)          (None, 54, 80)        0           cov3[0][0]                       
____________________________________________________________________________________________________
dropout_3 (Dropout)              (None, 54, 80)        0           leakyrelu_3[0][0]                
____________________________________________________________________________________________________
cov4 (Convolution1D)             (None, 51, 80)        25680       dropout_3[0][0]                  
____________________________________________________________________________________________________
leakyrelu_4 (LeakyReLU)          (None, 51, 80)        0           cov4[0][0]                       
____________________________________________________________________________________________________
dropout_4 (Dropout)              (None, 51, 80)        0           leakyrelu_4[0][0]                
____________________________________________________________________________________________________
cov5 (Convolution1D)             (None, 48, 80)        25680       dropout_4[0][0]                  
____________________________________________________________________________________________________
leakyrelu_5 (LeakyReLU)          (None, 48, 80)        0           cov5[0][0]                       
____________________________________________________________________________________________________
dropout_5 (Dropout)              (None, 48, 80)        0           leakyrelu_5[0][0]                
____________________________________________________________________________________________________
flatten_1 (Flatten)              (None, 3840)          0           dropout_5[0][0]                  
____________________________________________________________________________________________________
dense_1 (Dense)                  (None, 100)           384100      flatten_1[0][0]                  
____________________________________________________________________________________________________
leakyrelu_6 (LeakyReLU)          (None, 100)           0           dense_1[0][0]                    
____________________________________________________________________________________________________
dropout_6 (Dropout)              (None, 100)           0           leakyrelu_6[0][0]                
____________________________________________________________________________________________________
dense_2 (Dense)                  (None, 1)             101         dropout_6[0][0]                  
____________________________________________________________________________________________________
activation_1 (Activation)        (None, 1)             0           dense_2[0][0]                    
====================================================================================================
Total params: 475481
____________________________________________________________________________________________________
compiling and fitting model...........
Train on 31406 samples, validate on 3924 samples
Epoch 1/500
Epoch 00000: val_loss improved from inf to 0.69313, saving model to ./bestmodel1.hdf5
…
